MotionLCM/experiments_eeg/eeg2textemb.ckpt (torch, 956037 bytes, 6 tensors)

backbone.0.weight f4 [128, 27, 7]
-0.046520837 -0.0149422465 0.067738436 -0.018373573 0.02661871 0.0044264696 0.029839069 0.03983841
0.018893281 0.050302237 -0.018345326 0.023664964 0.024997491 -0.062807366 0.056922074 0.079247884
0.07968888 -0.018779835 -0.0555412 -0.04456439 0.055457294 -0.020663029 0.012368938 -0.045914676
-0.009936964 -0.0044324254 -0.035606276 0.07427778 -0.012848363 -0.0439087 0.04727557 -0.020556547
0.06145028 0.04105544 0.0779315 0.08463969 0.04675085 0.043374076 0.06051722 -0.01816107
-0.00842824 0.07000146 0.07932709 0.017980486 -0.016538225 0.03228656 -0.055506118 0.058789644
0.030010672 -0.057433564 -0.036269136 0.024702465 0.0022768667 0.07467148 -0.029819919 -0.061658345
0.0529713 -0.008100185 0.0290461 0.0060945177 -0.020938406 0.026488798 0.035283793 -0.0146122705
0.0755038 -0.050970707 0.023141375 0.04739579 -0.058925085 0.067294635 -0.03263 0.003580002
-0.013534103 0.014578939 0.026262956 0.062134787 -0.033338275 -0.012581944 0.038659777 0.07574126
0.05769574 -0.048403382 0.065878876 -0.014383562 0.0449775 -0.05763055 0.029892381 -0.053563066
0.027021257 0.06077236 0.044363078 -0.041832197 -0.025117084 -0.0688572 -0.01878957 -0.051259227
0.021570144 0.04049956 -0.03867616 0.045811523 0.022292282 -0.054087084 -0.022750892 0.0060395403
-0.03831321 -0.01788739 -0.015889876 0.03680165 -0.057835888 -0.066379 0.053791497 -0.048458215
0.0013448759 0.02498416 -0.001857414 0.016045839 0.014857348 0.009339194 0.032045413 0.051655184
-0.0518237 -0.013966402 -0.047978897 0.028091386 -0.04123453 0.020203153 0.053959582 0.038919087
0.013255309 -0.013197539 0.01925455 0.049105324 0.022506831 0.0662527 0.055403475 0.012166401
0.041728806 -0.051332682 0.038408156 -0.03091172 -0.024136627 0.0173475 0.00819551 0.06932821
-0.007926721 -0.009677618 0.026203604 0.015624771 0.0031830037 0.056576177 0.047433376 -0.028577797
0.014863357 0.047041252 0.011310174 -0.062563725 -0.07860392 -0.059434805 0.053462766 0.024725426
-0.055647735 -0.023081725 0.008265555 -0.074618936 -0.025278239 -0.03305957 0.0054726787 -0.052636605
0.07487699 -0.020917892 -0.027673505 0.042309966 0.036391262 -0.043764092 -0.07140229 -0.039036963
0.0052462495 0.054269068 0.0373379 0.076330416 -0.05003956 -0.021041578 -0.03233321 -0.058995843
0.068262175 0.03290986 0.062269665 -0.034903333 -0.024308309 -0.063119866 0.018556783 -0.05752842
0.030067462 -0.016171267 0.05212972 -0.01448761 0.037131075 0.0036064934 -0.010012686 0.06279402
-0.06333336 -0.07058724 0.063394815 -0.039243065 -0.010612493 -0.045983166 0.080060974 -0.010809992
-0.008774363 0.014260436 0.018961765 0.034604333 -0.04716517 0.012163269 0.059895672 0.05095973
-0.014816715 0.041364133 0.02482714 0.03911261 0.041525397 0.056928817 -0.012662741 -0.005242373
0.03648168 0.038690906 0.006171368 0.03455827 -0.010618678 -0.030306194 0.051721767 -0.03663244
-0.023185913 -0.009604832 0.009622663 -0.06858191 0.048943732 -0.054139968 -0.024184708 0.018343545
-0.0327538 -0.054318093 0.05158499 -0.041105278 -0.018181302 0.016348165 0.012502352 -0.035904113
0.059742384 0.059389893 0.04537262 0.06156499 0.06350059 -0.06108261 -0.019844541 0.04991302
00000000: a28c 3ebd 53d0 74bc 73ba 8a3d 2d84 96bc
00000010: 7b0f da3c eb0b 913b 1071 f43c 9a2d 233d
00000020: 15c6 9a3c b809 4e3d f048 96bc 07dd c13c
00000030: 8ac7 cc3c 26a1 80bd 1f27 693d b74c a23d
00000040: ec33 a33d 2bd8 99bc 2b7f 63bd 2689 36bd
00000050: 3027 633d 8345 a9bc 16a7 4a3c 0711 3cbd
00000060: a6ce 22bc e13d 91bb e3d7 11bd f31e 983d
00000070: f181 52bc 9cd9 33bd 07a4 413d 3466 a8bc
00000080: 4ab3 7b3d c029 283d 8d9a 9f3d 9357 ad3d
00000090: d27d 3f3d 04a9 313d e8e0 773d 86c6 94bc
000000a0: 9a16 0abc ed5c 8f3d 3e76 a23d d04b 933c
000000b0: 2c7b 87bc e93e 043d 625a 63bd 69cd 703d
000000c0: f1d8 f53c 753f 6bbd f28e 14bd d35c ca3c
000000d0: 7c37 153b 5ced 983d e748 f4bc 768d 7cbd
000000e0: 6ff8 583d a3b6 04bc 16f2 ed3c 85b4 c73b
000000f0: 0587 abbc 09ff d83c bd85 103d 4e68 6fbc
00000100: bca1 9a3d a9c6 50bd fb92 bd3c 1722 423d
00000110: 6e5b 71bd c5d1 893d 09a7 05bd 789e 6a3b
00000120: 24be 5dbc 81dc 6e3c 6925 d73c 0c81 7e3d
00000130: b78d 08bd 8024 4ebc b759 1e3d 3c1e 9b3d
00000140: 5e52 6c3d a042 46bd 81eb 863d 08a9 6bbc
00000150: 543a 383d 030e 6cbd dee0 f43c f264 5bbd
00000160: af5b dd3c 70ec 783d 0fb6 353d 3d58 2bbd
00000170: 58c2 cdbc 0105 8dbd 96ec 99bc 32f5 51bd
00000180: dfb3 b03c dee2 253d e56a 1ebd dda4 3b3d
00000190: 4e9e b63c 6b8a 5dbd 1460 babc 56e7 c53b
000001a0: 50ee 1cbd 9388 92bc 7c2b 82bc 54bd 163d
000001b0: 53e5 6cbd b7f1 87bd 7954 5c3d 1f7c 46bd
000001c0: 8c46 b03a 95ab cc3c 7974 f3ba 9072 833c
000001d0: 3c6c 733c 6b03 193c 0d42 033d 6394 533d
000001e0: 1745 54bd 56d3 64bc 8585 44bd e81f e63c
000001f0: 8ae5 28bd 1581 a53c b904 5d3d 9f69 1f3d
00000200: cc2c 593c 7e3a 58bc b8bb 9d3c aa22 493d
00000210: 3f60 b83c 7faf 873d c1ee 623d 9655 473c
00000220: d3eb 2a3d 3842 52bd df51 1d3d 933a fdbc
00000230: 2dba c5bc 581c 8e3c 7646 063c f3fb 8d3d
00000240: 14df 01bc df8e 1ebc f1a8 d63c 0aff 7f3c
00000250: f199 503b 6cbc 673d 8049 423d fc1b eabc
00000260: 7085 733c 54ae 403d 4f4e 393c 6921 80bd
00000270: 18fb a0bd e971 73bd c6fb 5a3d fa8c ca3c
00000280: e1ee 63bd e315 bdbc 406c 073c d0d1 98bd
00000290: 4f14 cfbc 7969 07bd 2854 b33b 7b99 57bd
000002a0: 1b59 993d 005c abbc 8cb3 e2bc 374d 2d3d
000002b0: 010f 153d fa41 33bd 5d3b 92bd 39e5 1fbd
000002c0: bbe8 ab3b 3e49 5e3d a0ef 183d 1f53 9c3d
000002d0: 48f6 4cbd 635f acbc d46f 04bd a0a5 71bd
000002e0: 0acd 8b3d 7dcc 063d 7a0e 7f3d ccf6 0ebd
000002f0: 3822 c7bc fd44 81bd 6504 983c eca2 6bbd
00000300: 0a50 f63c 9b79 84bc f985 553d 715d 6dbc
00000310: c116 183d eb5a 6c3b 400c 24bc 279a 803d
00000320: ecb4 81bd 0b90 90bd 24d5 813d 56bd 20bd
00000330: 06e0 2dbc d858 3cbd 02f7 a33d 651c 31bc
00000340: 59c2 0fbc 9ba4 693c b455 9b3c 46bd 0d3d
00000350: 4430 41bd 7348 473c 2a55 753d 26bb 503d
00000360: cfc1 72bc 706d 293d 4962 cb3c 8b34 203d
00000370: 8916 2a3d 312e 693d 6377 4fbc 36c8 abbb
00000380: d06d 153d 5b7a 1e3d 3039 ca3b f98c 0d3d
00000390: f7f9 2dbc b244 f8bc 34da 533d e60b 16bd
000003a0: 62f0 bdbc 965d 1dbc 60a8 1d3c ac74 8cbd
000003b0: 3979 483d dfc1 5dbd 021f c6bc 3445 963c
000003c0: d928 06bd a67c 5ebd c84a 533d 025e 28bd
000003d0: f4f0 94bc 96ec 853c aad6 4c3c 3110 13bd
000003e0: 6eb4 743d d142 733d a4d8 393d 922b 7c3d
000003f0: 990c 823d c231 7abd 0591 a2bc 9871 4c3d

backbone.0.bias f4 [128]
-0.015348179 -0.03192365 -0.020865863 -0.067159906 -0.081093594 -0.0010812635 -0.08084813 -0.016816003
-0.06791065 0.04525896 0.009349983 -0.0797244 0.0058609755 0.028030744 0.049385957 0.02439712
-0.09519838 -0.04909674 0.0014384593 -0.05117975 0.0054441285 -0.085625276 -0.072248004 0.010210693
-0.08916389 0.024819309 -0.044591293 -0.011517725 -0.04082791 -0.07347356 -0.043783203 -0.09743477
-0.028424542 -0.07912989 0.015721349 -0.069504514 -0.022930585 0.013772453 0.020197025 0.03267452
-0.020499563 -0.049985517 -0.054884374 0.017081175 0.041971736 0.024585549 -0.058753964 0.022637032
0.044889793 -0.046435755 0.043396324 -0.048564132 0.0011840399 0.06118288 -0.009955503 -0.09723647
-0.0037281888 0.028017193 0.023085615 -0.04742953 -0.003363731 -0.060295902 0.021745915 -0.0008530082
-0.075631246 0.0034006762 0.06365437 -0.091191866 0.015179391 -0.047926508 -0.019797083 -0.032648187
-0.012427979 -0.023163212 0.045463745 -0.012567995 -0.034947556 -0.010556059 -0.005325007 -0.056856606
0.04270445 -0.044616014 -0.05324469 -0.06216165 -0.027159113 0.006328853 -0.008227984 -0.04527799
0.016499234 -0.012891348 0.017331667 -0.09764974 -0.073696226 0.042213213 -0.06119454 -0.042695466
-0.057030052 -0.037232976 -0.06279578 0.06013198 -0.09572726 0.009798704 0.036242183 -0.05936968
0.035265796 -0.0489582 -0.08205494 -0.003326281 0.019469932 0.023610327 0.008937976 0.011972965
0.029243788 -0.09689443 -0.028189054 -0.01920691 -0.048211556 0.029304484 -0.062887736 -0.0009658701
-0.03336412 -0.09522376 -0.06915204 -0.06319396 -0.08221465 -0.0868417 -0.038333524 -0.0021830723
00000000: ee76 7bbc 60c2 02bd e3ee aabc 228b 89bd
00000010: 6614 a6bd 2fb9 8dba b493 a5bd b7c1 89bc
00000020: bd14 8bbd 7661 393d ac30 193c 8c46 a3bd
00000030: 6d0d c03b bba0 e53c ee48 4a3d 78dc c73c
00000040: 5ef7 c2bd aa19 49bd af8a bc3a dca1 51bd
00000050: a964 b23b 4e5c afbd c3f6 93bd c04a 273c
00000060: 8f9b b6bd dd51 cb3c 5ca5 36bd d7b4 3cbc
00000070: 2b3b 27bd 4e79 96bd 0456 33bd e18b c7bd
00000080: 96da e8bc da0e a2bd 0fca 803c 6258 8ebd
00000090: ecd8 bbbc dba5 613c 3b74 a53c b8d5 053d
000000a0: b3ee a7bc 9dbd 4cbd 70ce 60bd d2ed 8b3c
000000b0: 8eea 2b3d a267 c93c ffa7 70bd 4c71 b93c
000000c0: 5cde 373d 6b33 3ebd 58c0 313d 2feb 46bd
000000d0: c931 9b3a e69a 7a3d 681c 23bc ea23 c7bd
000000e0: a154 74bb 5084 e53c 0b1e bd3c 7845 42bd
000000f0: 0b72 5cbb d6f8 76bd 7d24 b23c 699c 5fba
00000100: 8ee4 9abd e1dd 5e3b 395d 823d cdc2 babd
00000110: fbb2 783c 964e 44bd 7e2d a2bc 1bba 05bd
00000120: b99e 4bbc c7c0 bdbc 3138 3a3d fee9 4dbc
00000130: 2b25 0fbd 52f3 2cbc 657d aebb 79e2 68bd
00000140: ddea 2e3d 48bf 36bd 1b17 5abd 379d 7ebd
00000150: ca7c debc 4462 cf3b abce 06bc 6a75 39bd
00000160: 6729 873c 3c36 53bc 24fb 8d3c 96fc c7bd
00000170: 0cee 96bd c3e7 2c3d 20a7 7abd 71e1 2ebd
00000180: 5898 69bd 9b81 18bd 139b 80bd f34c 763d
00000190: a70c c4bd be8a 203c af72 143d 9f2d 73bd
000001a0: de72 103d 6588 48bd 6c0c a8bd bcfd 59bb
000001b0: 687f 9f3c 726a c13c 9770 123c 412a 443c
000001c0: ab90 ef3c 9670 c6bd bbec e6bc cf57 9dbc
000001d0: 7b79 45bd f50f f03c 49cb 80bd 7232 7dba
000001e0: d1a8 08bd ad04 c3bd 969f 8dbd d66b 81bd
000001f0: 2860 a8bd 10da b1bd 9d03 1dbd e011 0fbb

backbone.2.weight f4 [128, 128, 7]
0.0009761428 -0.027650775 -0.028770186 0.00407322 0.019968698 -0.031470586 0.006281413 0.01928419
-0.025800405 0.009140699 0.014249941 -0.02925351 -0.002565479 0.014475879 -0.020987319 -0.006989259
-0.017792545 -0.016474286 0.01647386 -0.0054323846 0.009127301 0.0040687644 -0.02368736 0.023457155
0.020543784 0.012211174 -0.025693329 0.023914669 0.024210654 -0.002377656 0.022740666 -0.012877737
-0.01610493 -0.007089022 0.019453714 -0.01103431 -0.0016290706 -0.010439759 0.0029079148 0.011728593
-0.0036999593 0.0105306255 0.010651733 0.019522503 -0.0061206026 0.019056084 0.013960366 -0.007867231
0.017041568 -0.0025192483 -0.015519667 -0.028101394 -0.0031724796 -0.016264344 -0.018310502 -0.027407749
-0.005678208 -0.015600827 -0.0017451906 -0.011430453 -0.013366073 0.009620428 -0.017153203 0.012996598
0.021025812 0.022508174 0.023433922 0.023785705 -0.005257917 -0.025664022 -0.026333563 0.02887819
0.024887616 -0.0024697508 -0.018147994 0.012040033 -0.005242552 -0.035359375 -0.02480599 0.025818292
0.021910343 0.024274925 -0.013951309 -0.000539973 -0.02392028 -0.01306494 0.01168536 -0.006241194
-0.018451592 -0.016933136 0.015470136 0.015146494 0.00831077 0.0005216078 0.0025289168 0.01892242
-0.01776453 -0.037678678 -0.0085194735 -0.023489833 0.015916493 -0.034528516 0.014449411 0.019879052
-0.02294844 -0.018410217 0.021145038 0.008005498 -0.0018945279 -0.010274588 0.019258525 0.030442318
-0.037740827 0.019923858 -0.035615828 -0.02443473 -0.014978819 0.015232727 -0.01831548 0.010363828
-0.014949649 -0.025868656 -0.034075506 -0.025892124 -0.019094123 0.021897247 0.02852116 -0.014683593
-0.013574146 0.015988683 -0.017177362 0.016934209 0.0058422773 -0.0259115 -0.028997662 -0.014503028
-0.00097115216 0.005582827 -0.012417145 -0.029407756 -0.02134227 -0.013250387 -0.02703085 -0.00074369035
-0.011551684 0.0031331568 -0.033973344 -0.006275536 -0.006571544 0.006456756 0.0040641353 -0.016158314
0.03065966 -0.0021928973 0.027384467 0.03038023 0.03444642 -0.007900733 -0.008828915 -0.016871324
0.004523263 -0.035428777 -0.022622177 0.016667027 -0.021402102 -0.015608216 0.0020397925 0.015440485
-0.0064523527 0.03426934 -0.011158047 -0.02690168 0.015092422 -0.019235471 0.0046939547 0.014014587
-0.024320174 -0.018479574 0.004983779 0.019499967 -0.020216402 -0.004974026 -0.031495042 0.022768168
0.0076233563 -0.008851088 -0.0068326304 0.0019505676 0.0136172995 -0.012733542 -0.026629481 -0.0047838306
-0.008216465 -0.03751943 0.028404271 -0.0097627 0.02254962 0.028535673 -0.034737963 0.028210908
-0.0030562247 0.003997764 0.02224135 0.014310368 0.02097773 0.014234507 -0.02814605 0.015926847
-0.026921285 -0.026099721 0.014852448 -0.026507465 -0.00097361894 -0.03853186 0.01665612 0.012203862
0.018765023 0.022206686 0.009656716 0.036843173 4.3389373e-06 -0.029172787 -0.028241692 -0.027681174
-0.009500652 0.020954464 -0.0041757273 -0.0006420661 -0.019472692 0.024834532 0.023085149 0.0074227857
0.013054968 -0.017508939 -0.010241809 0.017725503 0.025218422 -0.028231889 -0.022787837 -0.013753395
0.015857663 -0.028129458 0.025553118 0.0069080964 0.027588995 0.0030487466 -0.023359774 0.0011263075
0.029021863 -0.020334093 0.019926967 0.023005877 0.015916632 -0.005457638 0.013065985 -0.032340147
00000000: d6e3 7f3a e183 e2bc 74af ebbc a578 853b
00000010: 6595 a33c 4de7 00bd 50d4 cd3b e1f9 9d3c
00000020: 5f5b d3bc dfc2 153c 9678 693c 0fa5 efbc
00000030: 9821 28bb 3d2c 6d3c 99ed abbc 2706 e5bb
00000040: acc1 91bc 15f5 86bc 30f4 863c 2502 b2bb
00000050: ad8a 153c 4553 853b ff0b c2bc 3829 c03c
00000060: 704b a83c 6011 483c d17a d2bc b2e8 c33c
00000070: 6c55 c63c 73d2 1bbb a24a ba3c 25fd 52bc
00000080: 7cee 83bc 074b e8bb 655d 9f3c 40c9 34bc
00000090: 8a86 d5ba 860b 2bbc b792 3e3b 4929 403c
000000a0: 047b 72bb a588 2c3c 9b84 2e3c a8ed 9f3c
000000b0: 568f c8bb 811b 9c3c 05ba 643c 8fe5 00bc
000000c0: c29a 8b3c f919 25bb 3446 7ebc e534 e6bc
000000d0: 60e9 4fbb cd3c 85bc e8ff 95bc 3786 e0bc
000000e0: 4310 babb 9c9a 7fbc e1be e4ba cb46 3bbc
000000f0: 60fd 5abc 009f 1d3c e084 8cbc afef 543c
00000100: 533e ac3c 1063 b83c 7ff8 bf3c 3dda c23c
00000110: 9b4a acbb 5b3d d2bc 7cb9 d7bc f491 ec3c
00000120: 1de1 cb3c 8bdb 21bb 1aab 94bc 8f43 453c
00000130: b7c9 abbb fed4 10bd ee35 cbbc e280 d33c
00000140: 527d b33c 35dc c63c 0894 64bc fa8c 0dba
00000150: 77f4 c3bc 550e 56bc f473 3f3c ee82 ccbb
00000160: cb27 97bc 5cb7 8abc 7476 7d3c 0029 783c
00000170: e529 083c 82bc 083a 2fbc 253b 3103 9b3c
00000180: eb86 91bc f554 1abd 4395 0bbc c06d c0bc
00000190: 4e63 823c c66d 0dbd 39bd 6c3c 65d9 a23c
000001a0: 5efe bbbc 06d1 96bc 5c38 ad3c 7e29 033c
000001b0: cf51 f8ba bf56 28bc 0ec4 9d3c 2b62 f93c
000001c0: 2096 1abd 5c37 a33c e7e1 11bd 582b c8bc
000001d0: b869 75bc b092 793c 580a 96bc 0ccd 293c
000001e0: 5fef 74bc 81ea d3bc c292 0bbd b81b d4bc
000001f0: 476b 9cbc db61 b33c 35a5 e93c 7493 70bc
00000200: 1866 5ebc b3fa 823c 8ab7 8cbc 9cb9 8a3c
00000210: 9370 bf3b 5b44 d4bc 818c edbc 1c9e 6dbc
00000220: eb94 7eba 26f0 b63b 4871 4bbc 89e8 f0bc
00000230: fcd5 aebc 2718 59bc cd6f ddbc 37f4 42ba
00000240: 4643 3dbc a655 4d3b a227 0bbd 03a3 cdbb
00000250: 1b56 d7bb 3293 d33b 702c 853b 715e 84bc
00000260: f829 fb3c b6b6 0fbb 6455 e03c f6df f83c
00000270: b017 0d3d 1372 01bc 27a7 10bc bb35 8abc
00000280: e137 943b c41d 11bd 2552 b9bc 4a89 883c
00000290: 7653 afbc 9ab9 7fbc 0aae 053b 17fa 7c3c
000002a0: 426e d3bb 025e 0c3d 3ed0 36bc e960 dcbc
000002b0: 3546 773c b593 9dbc bfcf 993b 709d 653c
000002c0: 1a3b c7bc 7a62 97bc f84e a33b 65be 9f3c
000002d0: de9c a5bc 27fd a2bb f200 01bd 4f84 ba3c
000002e0: 59cd f93b 2704 11bc 42e4 dfbb 30aa ff3a
000002f0: 181b 5f3c 59a0 50bc 1226 dabc aec1 9cbb
00000300: 5a9e 06bc f9ad 19bd 13b0 e83c bbf3 1fbc
00000310: fbb9 b83c a5c3 e93c 6549 0ebd 901a e73c
00000320: f14a 48bb adff 823b 7e33 b63c 0976 6a3c
00000330: 7dd9 ab3c da37 693c 8c92 e6bc 0579 823c
00000340: 078a dcbc 15cf d5bc af57 733c 2f26 d9bc
00000350: 763a 7fba 95d3 1dbd 6a72 883c b5f2 473c
00000360: 1bb9 993c ccea b53c 3437 1e3c dee8 163d
00000370: 3097 9136 c5fb eebc 1f5b e7bc a1c3 e2bc
00000380: 9fa8 1bbc b2a8 ab3c 8ad4 88bb 5450 28ba
00000390: 3285 9fbc ca71 cb3c 111d bd3c d73a f33b
000003a0: 81e4 553c e86e 8fbc 43cd 27bc 1335 913c
000003b0: dd96 ce3c 9046 e7bc 8fad babc eb55 61bc
000003c0: eee7 813c c06f e6bc c654 d13c 505d e23b
000003d0: 5102 e23c 7bcd 473b ff5c bfbc 9ca0 933a
000003e0: 42bf ed3c af93 a6bc e13d a33c d276 bc3c
000003f0: 9963 823c fcd5 b2bb b712 563c 1a77 04bd

backbone.2.bias f4 [128]
-0.03656953 0.020810518 0.029279485 0.012637908 -0.00041779506 0.021759368 0.01977181 -0.029641267
-0.022140913 0.017145269 -0.03768611 -0.00049845537 -0.017053949 -0.008075815 0.046010368 0.025155555
-0.008892192 0.04213241 -0.039171558 -0.034310736 0.020625383 0.004680501 0.023261901 0.010523266
0.043727495 0.0037511082 -0.036759716 -0.0056326594 -0.002495569 -0.025233306 0.017871631 0.033149965
0.026251702 0.02205213 0.0142308865 0.022218738 -0.018339805 -0.018728824 -0.009504559 -0.0069857202
0.0036907403 -0.02049288 0.007287588 -0.0047812783 -0.019060964 0.045748577 0.0013892528 0.030165544
0.014646587 -0.00073316984 -0.0025303091 0.020927195 0.036618255 0.031355627 -0.0119664855 0.022128308
-0.0055277995 0.009000661 -0.029916393 -0.0046150996 -0.030374037 0.0008424978 -0.018277679 0.03268616
-0.01070199 -0.022870263 -0.02667256 0.0065342556 -0.0008168214 0.017808689 0.02496413 -0.024359185
-0.010354151 -0.0138499765 0.042859405 0.0152701195 -0.0370845 -0.033336136 0.0048577986 0.011379132
-0.020813087 -0.02958598 0.04796818 -0.037658524 0.013501503 0.040212862 0.0073597697 -0.016880259
0.01453136 0.008523765 -0.037677445 0.02253031 0.032307867 0.008792324 0.016389849 0.006132156
-0.004156336 0.024278268 -0.0020269123 -0.00026870763 -0.020900408 0.020227047 0.05157717 0.049621113
0.018223668 -0.013166601 0.019334411 0.038805038 -0.0073528346 -0.039023705 0.031193709 0.018698717
0.020509 -0.0010731632 -0.039536633 0.049260695 -0.002242822 -0.021779187 -0.026750008 0.012304841
0.021776564 0.011421964 -0.037414458 0.042657126 0.023560297 -0.0072168214 0.03928026 0.028708963
00000000: eec9 15bd d27a aa3c 88db ef3c 3a0f 4f3c
00000010: 810b dbb9 b440 b23c 7ef8 a13c 3ed2 f2bc
00000020: dc60 b5bc 3c74 8c3c c05c 1abd c6aa 02ba
00000030: b9b4 8bbc 6c50 04bc 5e75 3c3d 0613 ce3c
00000040: 8eb0 11bc 0993 2c3d 5b72 20bd 6a89 0cbd
00000050: 90f6 a83c e35e 993b be8f be3c c769 2c3c
00000060: 9a1b 333d 27d5 753b 5b91 16bd 2c92 b8bb
00000070: b38c 23bb 14b6 cebc 8767 923c 42c8 073d
00000080: cf0d d73c aba6 b43c aa28 693c 1204 b63c
00000090: 5c3d 96bc 316d 99bc 03b9 1bbc 78e8 e4bb
000000a0: 59e0 713b afe0 a7bc b8cc ee3b 45ac 9cbb
000000b0: bd25 9cbc dc62 3b3d 9717 b63a bb1d f73c
000000c0: 3df8 6f3c 3232 40ba 8bd3 25bb 826f ab3c
000000d0: 06fd 153d c26e 003d 140f 44bc 6d46 b53c
000000e0: 8b22 b5bb 8277 133c 3913 f5bc 433a 97bb
000000f0: f9d2 f8bc 12db 5c3a 12bb 95bc ece1 053d
00000100: 6657 2fbc 6b5a bbbc 6a80 dabc 4f1d d63b
00000110: f51f 56ba 87e3 913c 9381 cc3c ea8c c7bc
00000120: 75a4 29bc 03eb 62bc 588d 2f3d 862f 7a3c
00000130: ebe5 17bd 798b 08bd 2b2e 9f3b 8a6f 3a3c
00000140: 3580 aabc 4c5e f2bc 487a 443d d33f 1abd
00000150: 6835 5d3c 3eb6 243d 392a f13b 7848 8abc
00000160: f114 6e3c 43a7 0b3c aa53 1abd 7c91 b83c
00000170: 4155 043d ae0d 103c 0144 863c 41f0 c83b
00000180: e031 88bb 38e3 c63c f2d5 04bb 54e1 8cb9
00000190: 5537 abbc 31b3 a53c 9542 533d 823f 4b3d
000001a0: cd49 953c bab8 57bc 3363 9e3c 08f2 1e3d
000001b0: 0cf0 f0bb 52d7 1fbd f389 ff3c 0d2e 993c
000001c0: 7e02 a83c 62a9 8cba 2af1 21bd 95c5 493d
000001d0: 4ffc 12bb 446a b2bc d522 dbbc 3e9a 493c
000001e0: c464 b23c 3023 3b3c e73f 19bd 3db9 2e3d
000001f0: 8601 c13c 167b ecbb 57e4 203d 0f2f eb3c

proj.weight f4 [768, 128]
-0.051123302 0.050152823 0.068535194 -0.05701538 -0.016821235 -0.088377096 -0.038810924 0.08832933
-0.0067837304 -0.087875076 0.007914132 -0.073851585 -0.052623853 0.07706721 -0.046870306 0.07623484
0.020638686 -0.06636981 0.04115267 0.040232483 0.030995566 0.029632816 0.00048776605 0.05467335
-0.075403385 0.03165642 -0.02427562 -0.07499826 0.0063515753 -0.07010658 0.05498626 0.015211177
-0.07780105 -0.09246555 0.03609862 -0.0037773245 0.073436946 -0.07239758 -0.07618273 -0.013512749
-0.0075820987 0.042627502 -0.08421072 0.01906748 0.041941844 -0.08468685 0.052267842 0.035410773
-0.02706669 0.046170313 0.018399056 0.06660748 0.0126899695 0.015870754 -0.028315999 -0.06194083
-0.04907693 0.013741664 0.019638928 -0.017412517 0.027832618 -0.03488467 0.030647222 -0.056067955
-0.0072434023 0.053512968 -0.063008554 0.023961626 -0.09050968 0.07677233 0.046358574 0.065195
0.050415777 0.018597865 0.031250693 -0.045675725 0.028441843 0.0628317 0.029641025 0.018129177
-0.017494695 0.03258212 -0.00017807906 -0.0333088 0.00944862 -0.10173237 -0.083678655 -0.048107803
0.042921018 0.075763285 -0.0040194714 -0.010735361 -0.00024871682 0.062506154 0.031445213 -0.09435586
-0.011875542 0.01074841 -0.033138096 -0.05864487 0.0049570333 0.05286839 -0.06972939 0.0820632
-0.018885354 0.022783805 -0.103696354 -0.021991136 0.04569625 -0.06533878 -0.04204994 0.020057993
-0.008077774 0.06352733 0.051034953 -0.015858945 -0.020231314 -0.07977592 0.062238645 -0.06155127
0.019864963 -0.022288244 -0.07655653 -0.09521798 0.040288538 0.046835195 -0.029166507 0.07026475
0.016354544 -0.03892996 0.012115182 0.03376892 0.051142104 -0.03838791 0.039887134 -0.04716151
0.044680655 -0.036271058 -0.021177894 0.06592588 0.053351764 0.055176787 -0.008440487 0.08183759
0.08040826 -0.013621154 -0.076335095 -0.07072945 -0.07736139 -0.0750088 -0.024470178 -0.008949183
0.06277773 0.0554036 -0.035655484 -0.078702584 0.057412926 -0.039569255 -0.043384552 -0.03803015
-0.044522576 0.09239687 0.023696085 0.024739137 0.03366071 0.031712726 -0.028708125 0.028109338
-0.00597721 0.029447222 0.06847325 -0.08171847 -0.010424447 -0.0059091635 -0.06351119 0.033043053
-0.00805324 -0.023847848 0.07340282 -0.076329485 -0.06105198 -0.074054256 0.051998463 -0.025930572
-0.016674824 0.023227705 -0.06788265 0.0029748664 0.07125649 -0.01599965 0.07979877 0.08445617
-0.04816099 -0.057382707 -0.07748607 -0.074927464 -0.079325005 0.08354019 -0.033428263 -0.042990148
-0.077970184 0.08251719 0.07830205 0.0004667588 -0.022463538 0.07839593 0.04896311 -0.08672223
0.08553713 -0.020586709 0.066974014 0.0696274 -0.080665626 -0.032813236 0.038102172 -0.023660507
0.033103086 0.02064273 0.057756748 -0.07365656 -0.061824545 0.0800353 -0.040629327 0.090915814
-0.063813254 0.06390115 0.07926128 -0.060013082 0.022349061 -0.08298387 0.022501087 -0.02766069
0.08566855 0.082347125 -0.05285219 -0.0008582679 0.06468124 0.05691474 0.06395675 -0.018148275
-0.060574118 0.09234712 0.010069948 -0.041582905 0.0303875 -0.053847436 -0.0105032185 0.077353954
0.04417885 0.029216036 0.0029460525 0.005487691 -0.01279108 0.010863487 0.10210661 0.06740535
00000000: ab66 51bd 0c6d 4d3d 2e5c 8c3d f688 69bd
00000010: b0cc 89bc 0dff b4bd 34f8 1ebd 02e6 b43d
00000020: 0e4a debb d9f7 b3bd 47aa 013c 803f 97bd
00000030: 1c8c 57bd 6ad5 9d3d 14fb 3fbd 0321 9c3d
00000040: 7612 a93c e5ec 87bd b48f 283d d1ca 243d
00000050: 6aea fd3c 85c0 f23c daba ff39 2af1 5f3d
00000060: 176d 9abd 2aaa 013d aadd c6bc b098 99bd
00000070: e020 d03b 0a94 8fbd 4639 613d 4d38 793c
00000080: 2856 9fbd 945e bdbd 26dc 133d fd8c 77bb
00000090: 1c66 963d 2f45 94bd b105 9cbd 9464 5dbc
000000a0: 4173 f8bb 2d9a 2e3d ac76 acbd 6733 9c3c
000000b0: 36cb 2b3d 4d70 adbd ce16 563d e30a 113d
000000c0: f7ba ddbc 151d 3d3d 9eb9 963c 8169 883d
000000d0: 97e9 4f3c 6203 823c f4f6 e7bc abb5 7dbd
000000e0: e404 49bd b724 613c d1e1 a03c b2a4 8ebc
000000f0: 3b01 e43c 3ae3 0ebd e20f fb3c 83a7 65bd
00000100: 105a edbb 6a30 5b3d a10a 81bd 2c4b c43c
00000110: 245d b9bd d03a 9d3d 7de2 3d3d f584 853d
00000120: c680 4e3d 8d5a 983c ba00 003d 7816 3bbd
00000130: defe e83c e8ad 803d bcd1 f23c a483 943c
00000140: 0951 8fbc d474 053d bcba 3ab9 cf6e 08bd
00000150: 62ce 1a3c 1059 d0bd b75f abbd b00c 45bd
00000160: f3cd 2f3d c829 9b3d c5b5 83bb 5ee3 2fbc
00000170: 3566 82b9 3a03 803d b2cc 003d a53d c1bd
00000180: a291 42bc 191a 303c d0bb 07bd 9a35 70bd
00000190: 9c6e a23b 868c 583d 48ce 8ebd c010 a83d
000001a0: 75b5 9abc 1aa5 ba3c c15e d4bd c126 b4bc
000001b0: fe2b 3b3d 57d0 85bd 8f3c 2cbd a950 a43c
000001c0: a458 04bc 9e1a 823d 070a 513d 9eea 81bc
000001d0: 24bc a5bc 8f61 a3bd f3ed 7e3d 2f1d 7cbd
000001e0: d9bb a23c d695 b6bc acc9 9cbd a501 c3bd
000001f0: 9805 253d 43d6 3f3d 99ee eebc f7e6 8f3d
00000200: f7f9 853c 0675 1fbd c27e 463c 4751 0a3d
00000210: 627a 513d a43c 1dbd b160 233d 6d2c 41bd
00000220: 1003 373d f690 14bd 437d adbc 2604 873d
00000230: 6187 5a3d 0e01 623d f849 0abc 779a a73d
00000240: 16ad a43d 432b 5fbc 9355 9cbd 9ada 90bd
00000250: a66f 9ebd 379e 99bd af75 c8bc 989f 12bc
00000260: 9c91 803d e3ee 623d 7c0b 12bd d22e a1bd
00000270: d129 6b3d 5f13 22bd 00b4 31bd 81c5 1bbd
00000280: 4e5d 36bd 923a bd3d 4b1e c23c bba9 ca3c
00000290: d0df 093d 34e5 013d 4d2d ebbc 8e45 e63c
000002a0: 79dc c3bb 4d3b f13c b43b 8c3d 035c a7bd
000002b0: 4dcb 2abc a8a1 c1bb 2812 82bd 2758 073d
000002c0: bdf1 03bc 905c c3bc 3854 963d a252 9cbd
000002d0: a411 7abd c2a9 97bd 57fc 543d 5a6c d4bc
000002e0: a499 88bc 0748 be3c 0f06 8bbd faf5 423b
000002f0: ecee 913d b311 83bc 8a6d a33d 5bf7 ac3d
00000300: 7544 45bd 210a 6bbd 04b1 9ebd 9273 99bd
00000310: 2675 a2bd 1e17 ab3d 13ec 08bd 7016 30bd
00000320: d5ae 9fbd c6fe a83d d35c a03d 4eb7 f439
00000330: 7405 b8bc 0c8e a03d 8b8d 483d 6d9b b1bd
00000340: 172e af3d 75a5 a8bc ac29 893d cf98 8e3d
00000350: 0534 a5bd 2c67 06bd 0611 1c3d aed3 c1bc
00000360: 1a97 073d f11a a93c 5792 6c3d 40d9 96bd
00000370: bc3b 7dbd 8ce9 a33d f06a 26bd 1232 ba3d
00000380: 86b0 82bd 9bde 823d bd53 a23d 47d0 75bd
00000390: 6115 b73c 72f3 a9bd 3354 b83c ac98 e2bc
000003a0: fe72 af3d 9ca5 a83d 8a7b 58bd 62fd 60ba
000003b0: 9977 843d 6e1f 693d c2fb 823d b1ab 94bc
000003c0: 911c 78bd 7d20 bd3d 6cfc 243c d652 2abd
000003d0: 35ef f83c 218f 5cbd b115 2cbc c06b 9e3d
000003e0: e2f4 343d 7856 ef3c 8f12 413b 17d2 b33b
000003f0: ae91 51bc c4fc 313c 451d d13d d10b 8a3d

proj.bias f4 [768]
0.011124355 0.019910172 -0.041508384 -0.03404348 0.023423897 0.0048305546 0.0412977 -0.04869771
-0.03749956 -0.024721188 0.058732286 -0.0017595517 0.016601989 -0.048108548 0.045498624 0.018895332
0.007147598 0.040755704 0.044199686 0.053109508 0.04625557 -0.053922355 0.0029199768 -0.020735748
0.008998889 0.03847704 -0.05772981 0.0036239761 -0.033267662 -0.0027819055 0.038357906 0.038791697
-0.03335853 0.012576286 -0.035537213 0.012563279 -0.0057593025 0.01909666 0.020715866 0.0029574484
0.03405185 0.0044459645 -0.023271514 -0.055094615 0.028990889 0.0050967233 -0.060817767 0.024470508
-0.015858997 -0.044735752 -0.06465346 0.045607116 0.0030273495 0.00804623 0.008878948 -0.018495422
0.019956063 0.011502788 0.04660369 0.049823 -0.0052913963 0.012852226 -0.049513645 -0.044920254
0.0010163572 0.03268419 0.055653892 0.007066382 -0.0098432675 0.027966248 -0.008936371 -0.02139171
-0.029948981 -0.0013259756 0.025427222 -0.06007268 0.05797782 -0.03803828 -0.06960909 0.031645577
0.032159887 0.034522917 0.033440422 -0.05172171 0.018165486 0.0008908923 -0.070038624 0.023768362
-0.04932877 0.008222367 -0.047179572 -0.011619061 0.055066023 0.005992447 -0.04172576 0.025325606
0.036612824 0.009507306 0.028671145 -0.023039918 0.017161356 0.030975606 -0.015145774 0.041869923
0.05989867 0.02558166 -0.019879328 -0.059752204 -0.017212033 0.023061348 0.02772859 -0.017329182
0.012740893 0.04038435 -0.051637296 0.023960873 0.022421949 -0.0075371214 -0.059668753 -0.0540933
-0.03498073 0.061631236 0.02841866 -0.01072403 0.03479106 -0.009872389 -0.0022953586 0.014897074
0.03548857 -0.04599761 0.06488009 -0.009433812 -0.022147542 -0.05086733 -0.00439108 0.02325585
-0.042474106 0.026496861 0.032651085 0.01624094 -0.056427598 -0.060879447 0.0429621 0.01208398
-0.037721377 0.04429223 0.035848957 -0.05863964 -0.025345443 0.0032986398 0.044989184 -0.0060262354
-0.03450371 0.0732044 0.053735055 0.034332234 -0.008603296 -0.0046819868 0.045450862 -0.040149257
0.0393249 -0.037565995 0.03779442 -0.060864065 -0.05618699 0.04469213 -0.029449955 0.02204183
-0.012601251 0.004924281 -0.0612046 -0.026960311 -0.04126985 0.044786096 0.016692571 0.01764156
-0.0005217366 0.016278524 0.03614973 0.041738506 0.029212732 0.0020409143 -0.0072060735 0.016065305
-0.020738626 -0.032876153 -0.03351614 -0.039786924 0.010102589 0.013877891 0.050612766 0.047384847
-0.056008942 -0.0404307 -0.049999837 0.02299613 -0.029938089 0.026417913 0.05331544 -0.05377823
0.007987079 0.04211184 0.025070868 0.014641187 0.0022000917 -0.051794194 -0.06141663 -0.049192518
0.04687304 -0.044702105 0.017119795 -0.067853235 -0.025056677 0.054540664 0.0121027855 0.048518583
-0.035713397 -0.014189177 0.029725324 -0.0016861737 -0.051033422 0.036421373 -0.029503616 -0.008923066
0.05070423 -0.050323483 -0.034678467 -0.053656958 -0.0068672085 -0.038266387 0.0203401 -0.0002044966
-0.005985204 0.026810125 -0.051385015 -0.04747916 -0.03827823 0.0048837103 -0.042076662 -0.051106382
-0.038006127 -0.053726565 -0.010805412 -0.0118480455 0.019611003 -0.05934173 -0.05496622 -0.03452759
0.02836344 -0.020123022 0.047448386 0.02116592 -0.0072636195 -0.008792151 -0.011271264 -0.0024287137
00000000: ed42 363c a81a a33c b204 2abd 2d71 0bbd
00000010: 79e3 bf3c a149 9e3b c727 293d 4077 47bd
00000020: 2399 19bd 1784 cabc 4491 703d c2a0 e6ba
00000030: e500 883c 780d 45bd c45c 3a3d 62ca 9a3c
00000040: 6636 ea3b 74ef 263d bb0a 353d 5b89 593d
00000050: 7b76 3d3d b0dd 5cbd 155d 3f3b 04de a9bc
00000060: 1370 133c 1a9a 1d3d 1876 6cbd 3b80 6d3b
00000070: ac43 08bd a150 36bb 2e1d 1d3d 0be4 1e3d
00000080: f4a2 08bd c40c 4e3c 788f 11bd 36d6 4d3c
00000090: 88b8 bcbb 9970 9c3c 52b4 a93c c0d1 413b
000000a0: f479 0b3d 74af 913b e7a3 bebc e4aa 61bd
000000b0: 4d7e ed3c 6a02 a73b 0d1c 79bd 6076 c83c
000000c0: baea 81bc d63c 37bd 0969 84bd 87ce 3a3d
000000d0: 7f66 463b 56d4 033c 0279 113c b683 97bc
000000e0: e67a a33c 3176 3c3c 83e3 3e3d 3413 4c3d
000000f0: 7363 adbb 2592 523c d2ce 4abd 4dfe 37bd
00000100: 4a37 853a dbdf 053d 56f5 633d 1c8d e73b
00000110: a845 21bc 7919 e53c db69 12bc ab3d afbc
00000120: 9157 f5bc 5ccc adba c04c d03c c50e 76bd
00000130: 277a 6d3d 07ce 1bbd 368f 8ebd cb9e 013d
00000140: 16ba 033d e767 0d3d d3f8 083d 25da 53bd
00000150: c9cf 943c c58a 693a 6970 8fbd deb5 c23c
00000160: f70c 4abd 1bb7 063c 5e3f 41bd e05d 3ebc
00000170: e98c 613d 4a5c c43b a1e8 2abd a577 cf3c
00000180: 54f7 153d 88c4 1b3c c0df ea3c 36be bcbc
00000190: f995 8c3c 8ec0 fd3c fb25 78bc cc7f 2b3d
000001a0: 4f58 753d a190 d13c f9d9 a2bc babe 74bd
000001b0: 4000 8dbc 27eb bc3c 1127 e33c eef5 8dbc
000001c0: 2ebf 503c 0f6a 253d a181 53bd 9849 c43c
000001d0: 3cae b73c f5f9 f6bb 3967 74bd f090 5dbd
000001e0: f447 0fbd 0971 7c3d 40ce e83c d8b3 2fbc
000001f0: 1281 0e3d cdbf 21bc ba6d 16bb db12 743c
00000200: 765c 113d fd67 3cbd dadf 843d 4790 1abc
00000210: c36e b5bc 435a 50bd 0ce3 8fbb 0d83 be3c
00000220: 54f9 2dbd f20f d93c 25bd 053d b80b 853c
00000230: a020 67bd ba5c 79bd 07f9 2f3d e3fb 453c
00000240: bb81 1abd c56b 353d 5bd6 123d 1f30 70bd
00000250: 3fa1 cfbc fe2d 583b 9446 383d ba77 c5bb
00000260: c353 0dbd 30ec 953d 4a19 5c3d f59f 0c3d
00000270: d7f4 0cbc 5a6b 99bb af2a 3a3d 8c73 24bd
00000280: 2513 213d cdde 19bd 52ce 1a3d 994c 79bd
00000290: 5424 66bd 180f 373d 0841 f1bc 1191 b43c
000002a0: 7a75 4ebc dd5b a13b adb1 7abd dfdb dcbc
000002b0: 930a 29bd a071 373d dcbe 883c 0885 903c
000002c0: 27c5 08ba 8a5a 853c bd11 143d fff5 2a3d
000002d0: 8a4f ef3c dcc0 053b ed20 ecbb 639b 833c
000002e0: 0de4 a9bc 25a9 06bd 3848 09bd 9df7 22bd
000002f0: 5485 253c 1860 633c 554f 4f3d 9d16 423d
00000300: a269 65bd a99a 25bd a1cc 4cbd 6162 bc3c
00000310: b940 f5bc 616a d83c 4a61 5a3d 9046 5cbd
00000320: 3ddc 023c 777d 2c3d 6c61 cd3c 97e1 6f3c
00000330: 6a2f 103b 2626 54bd 0190 7bbd 187e 49bd
00000340: f2fd 3f3d 8e19 37bd d03e 8c3c a3f6 8abd
00000350: a943 cdbc 0866 5f3d c34a 463c 6cbb 463d
00000360: 3648 12bd b979 68bc 8682 f33c 9a02 ddba
00000370: 6c08 51bd 942e 153d 91b1 f1bc 0d32 12bc
00000380: 3daf 4f3d ff1f 4ebd 020b 0ebd 66c7 5bbd
00000390: 5206 e1bb 37bd 1cbd 48a0 a63c 236e 56b9
000003a0: 881f c4bb e8a0 db3c 1879 52bd 8279 42bd
000003b0: a2c9 1cbd 8807 a03b 9458 2cbd ed54 51bd
000003c0: 50ac 1bbd 6310 5cbd 2f09 31bc 4e1e 42bc
000003d0: 41a7 a03c 5010 73bd 4224 61bd cd6c 0dbd
000003e0: 725a e83c 09d9 a4bc 3d59 423d 2764 ad3c
000003f0: a803 eebb f40c 10bc 1cab 38bc 0e2b 1fbb
